_________________________________________________________________
Layer (type)                 Output Shape              Param #   
=================================================================
embedding_1 (Embedding)      (None, 250, 128)          2560000   
_________________________________________________________________
batch_normalization_1 (Batch (None, 250, 128)          512       
_________________________________________________________________
dropout_1 (Dropout)          (None, 250, 128)          0         
_________________________________________________________________
conv1d_1 (Conv1D)            (None, 195, 25)           179225    
_________________________________________________________________
batch_normalization_2 (Batch (None, 195, 25)           100       
_________________________________________________________________
dropout_2 (Dropout)          (None, 195, 25)           0         
_________________________________________________________________
max_pooling1d_1 (MaxPooling1 (None, 97, 25)            0         
_________________________________________________________________
flatten_1 (Flatten)          (None, 2425)              0         
_________________________________________________________________
dense_1 (Dense)              (None, 1)                 2426      
_________________________________________________________________
dense_2 (Dense)              (None, 1)                 2         
=================================================================
Total params: 2,742,265
Trainable params: 2,741,959
Non-trainable params: 306
_________________________________________________________________
None
Train on 22500 samples, validate on 2500 samples
Epoch 1/100
 1000/22500 [>.............................] - ETA: 31s - loss: 237.7352 - acc: 0.5140
…
