_________________________________________________________________
Layer (type)                 Output Shape              Param #   
=================================================================
embedding_1 (Embedding)      (None, 250, 128)          2560000   
_________________________________________________________________
batch_normalization_1 (Batch (None, 250, 128)          512       
_________________________________________________________________
dropout_1 (Dropout)          (None, 250, 128)          0         
_________________________________________________________________
conv1d_1 (Conv1D)            (None, 195, 50)           358450    
_________________________________________________________________
batch_normalization_2 (Batch (None, 195, 50)           200       
_________________________________________________________________
dropout_2 (Dropout)          (None, 195, 50)           0         
_________________________________________________________________
max_pooling1d_1 (MaxPooling1 (None, 97, 50)            0         
_________________________________________________________________
flatten_1 (Flatten)          (None, 4850)              0         
_________________________________________________________________
dense_1 (Dense)              (None, 1)                 4851      
_________________________________________________________________
dense_2 (Dense)              (None, 1)                 2         
=================================================================
Total params: 2,924,015
Trainable params: 2,923,659
Non-trainable params: 356
_________________________________________________________________
None
Train on 22500 samples, validate on 2500 samples
Epoch 1/100
 1000/22500 [>.............................] - ETA: 57s - loss: 440.5362 - acc: 0.4750
…
