_________________________________________________________________
Layer (type)                 Output Shape              Param #   
=================================================================
embedding_1 (Embedding)      (None, 250, 128)          2560000   
_________________________________________________________________
dropout_1 (Dropout)          (None, 250, 128)          0         
_________________________________________________________________
lstm_1 (LSTM)                (None, 25)                15400     
_________________________________________________________________
dropout_2 (Dropout)          (None, 25)                0         
_________________________________________________________________
dense_1 (Dense)              (None, 1)                 26        
=================================================================
Total params: 2,575,426
Trainable params: 2,575,426
Non-trainable params: 0
_________________________________________________________________
None
Train on 22500 samples, validate on 2500 samples
Epoch 1/20
 1000/22500 [>.............................] - ETA: 37s - loss: 0.6923 - acc: 0.5160
…
